models/nn_5m.pt (torch, 109233 bytes, 7 tensors)

net.0.weight f4 [192, 16]
-0.03583706 -0.015096271 0.1611766 -0.19511355 -0.24249755 0.017390264 -0.064389974 0.040258422
0.0027654208 -0.22278313 -0.29790163 -0.09483378 -0.1261371 -0.17419933 -0.09499202 -0.1410183
-0.23742068 -0.15814562 0.05090984 0.0306262 -0.20469108 -0.20314355 -0.047977235 -0.24046743
-0.13281476 0.1618702 0.06842866 -0.107460015 -0.21284896 0.14097838 -0.24089259 0.15634248
-0.110678114 0.004266271 0.24591643 0.072736666 0.11129575 0.08518617 -0.013242169 -0.09903215
-0.14853682 -0.12055715 0.09427313 -0.101526834 -0.05129461 0.1736936 0.20824501 -0.13853416
-0.16912052 0.069011815 0.19403942 0.22382337 0.0550331 -0.12390393 -0.15050288 0.020495346
0.11522321 -0.21841586 0.20953953 -0.13507417 0.24796541 -0.1770363 0.19869205 -0.15810165
-0.01769122 -0.17727211 -0.20916426 -0.15286449 -0.00687253 -0.17076631 0.09961966 0.07369061
-0.12485165 -0.22181709 -0.09356846 -0.23336235 0.2300477 0.1247566 -0.08548438 -0.23941237
-0.21673001 0.18278268 -0.04850269 0.08504553 0.20212308 -0.09065585 0.13754864 0.18390721
-0.22454925 0.15577652 -0.09322462 0.046057615 -0.116311796 0.06447703 -0.14672334 -0.034324154
0.21031086 -0.13097085 0.01453588 0.047971375 -0.11877341 -0.15439072 -0.0049099387 -0.24377686
0.22389422 0.15823802 0.24045661 0.20040692 -0.1138127 -0.0069452035 -0.19026007 -0.21527427
-0.07985395 -0.14417103 -0.23623712 0.12985314 0.17068091 -0.101591736 -0.09480409 -0.22498125
0.09809761 0.109388284 -0.14281149 -0.18813357 -0.0043511786 0.07787272 -0.053569943 -0.21523553
-0.087030165 -0.11374937 -0.23179848 -0.13363357 0.11866244 -0.19290026 0.08375852 -0.004393892
-0.110582955 0.16336477 0.07067879 0.10128112 -0.27770728 -0.1297268 -0.006251137 0.069627106
-0.042679776 0.07996891 -0.16200739 -0.10328315 -0.14394644 0.0135832075 0.19075218 0.11977567
0.1310303 -0.20727223 -0.06793102 -0.15430394 0.26651296 0.16094078 -0.023225006 0.0008106264
-0.043925047 -0.1822321 0.2230882 0.19422849 -0.16077337 0.10024003 0.0021631496 -0.21512711
-0.15842938 -0.18952653 0.19723321 0.05290172 -0.18131526 -0.09878021 -0.16650859 -0.23241529
0.16743678 -0.18245964 0.16703449 0.026490105 -0.20409681 -0.18825883 0.1871333 -0.010049347
0.20481026 -0.042360608 -0.15384305 -0.15558529 0.022948613 0.12845701 -0.018865382 0.17661381
0.24244928 -0.114466034 0.0071324846 0.018927114 -0.06302965 0.1824935 0.1497186 0.069210075
0.070308834 -0.28277293 0.14967252 0.25376746 0.09516929 0.07180812 0.10481814 0.18868417
0.15745308 -0.03588349 -0.028232947 -0.04470492 0.033466462 0.15293191 -0.08557595 0.165652
0.2021315 0.2273387 0.06319294 0.020294106 -0.12518537 0.035100278 -0.16434808 0.11453506
0.026898429 -0.20609826 0.015642116 -0.09404134 0.10571602 -0.2230259 -0.06312745 -0.13723123
-0.09908812 -0.15911344 0.20591976 -0.21633722 -0.20228185 0.16591297 -0.04541884 -0.037325427
-0.011605044 -0.1552139 -0.05440107 -0.17911418 -0.16897584 -0.04143246 0.2210396 0.23522305
-0.034454826 -0.25514364 -0.0774774 -0.069122024 -0.13771394 -0.054008357 -0.2062968 -0.071382284
00000000: e2c9 12bd 5a56 77bc 7b0b 253e d9cb 47be
00000010: 4751 78be 0776 8e3c e4de 83bd 04e6 243d
00000020: 103c 353b 4321 64be 9086 98be 3638 c2bd
00000030: 152a 01be 4f61 32be 2d8b c2bd 1a67 10be
00000040: 681e 73be edf0 21be d686 503d cce3 fa3c
00000050: 8a9a 51be dd04 50be c783 44bd 183d 76be
00000060: 9800 08be 4dc1 253e 5324 8c3d ff13 dcbd
00000070: 14f5 59be a35c 103e 8cac 76be 3e18 203e
00000080: 35ab e2bd 13cc 8b3b 84d1 7b3e f6f6 943d
00000090: 07ef e33d 1676 ae3d aff5 58bc 5ed1 cabd
000000a0: 091a 18be abe6 f6bd 4512 c13d 4ded cfbd
000000b0: 4c1a 52bd bcdc 313e 2e3e 553e e6db 0dbe
000000c0: ee2d 2dbe 1156 8d3d 45b2 463e f431 653e
000000d0: 636a 613d 58c1 fdbd 6d1d 1abe dbe5 a73c
000000e0: 25fa eb3d 68a8 5fbe 8891 563e e250 0abe
000000f0: a5ea 7d3e 0149 35be ee75 4b3e 66e5 21be
00000100: 2ded 90bc d286 35be 282f 56be 8288 1cbe
00000110: f632 e1bb 5ddd 2ebe 6405 cc3d 1aeb 963d
00000120: 39b2 ffbd 0524 63be d2a0 bfbd 8af6 6ebe
00000130: a091 6b3e 6380 ff3d 6f12 afbd 8428 75be
00000140: 79ee 5dbe 622b 3b3e c2aa 46bd 5a2c ae3d
00000150: 5af9 4e3e c6a9 b9bd 8dd9 0c3e 2c52 3c3e
00000160: 3df0 65be e183 1f3e 8dec bebd e9a6 3c3d
00000170: e134 eebd 880c 843d a53e 16be 7c97 0cbd
00000180: bb5b 573e 391d 06be e627 6e3c a27d 443d
00000190: 793f f3bd 9a18 1ebe 8de3 a0bb a4a0 79be
000001a0: 8744 653e 2609 223e 423a 763e 7937 4d3e
000001b0: a216 e9bd 9794 e3bb 89d3 42be dc70 5cbe
000001c0: 788a a3bd 92a1 13be 25e8 71be 39f8 043e
000001d0: fac6 2e3e 540f d0bd a628 c2bd 7c61 66be
000001e0: 66e7 c83d f706 e03d 2d3d 12be 16a6 40be
000001f0: 5594 8ebb bc7b 9f3d 286c 5bbd b466 5cbe
00000200: df3c b2bd 6ef5 e8bd 955c 6dbe 3dd7 08be
00000210: 4b05 f33d a587 45be 9689 ab3d a3fa 8fbb
00000220: 5179 e2bd 1849 273e 0bc0 903d 7a6c cf3d
00000230: a62f 8ebe 1ad7 04be 56d6 ccbb a898 8e3d
00000240: fdd0 2ebd bdc6 a33d 44e5 25be 1e86 d3bd
00000250: b266 13be 1a8c 5e3c 8a54 433e f24c f53d
00000260: cf2c 063e 2c3f 54be 6b1f 8bbd da01 1ebe
00000270: 6374 883e a9cd 243e 5e42 bebc 3880 543a
00000280: c0ea 33bd 0d9b 3abe 3c71 643e d5e3 463e
00000290: c6a1 24be a54a cd3d a1c3 0d3b 484a 5cbe
000002a0: 503b 22be 3e13 42be 81f7 493e 79af 583d
000002b0: b5aa 39be 474d cabd 3a81 2abe 46fe 6dbe
000002c0: 8c74 2b3e b3d6 3abe 170b 2b3e c701 d93c
000002d0: c1fe 50be ecc6 40be df9f 3f3e 04a6 24bc
000002e0: c8b9 513e 5182 2dbd 0889 1dbe c051 1fbe
000002f0: bbfe bb3c 3c8a 033e 938b 9abc 40da 343e
00000300: a044 783e 2b6d eabd 9eb7 e93b 090d 9b3c
00000310: b015 81bd 93df 3a3e d54f 193e 03be 8d3d
00000320: 14fe 8f3d 9dc7 90be c143 193e cfed 813e
00000330: 1ee8 c23d 2310 933d e5aa d63d 6c36 413e
00000340: 613b 213e 91fa 12bd c848 e7bc 821c 37bd
00000350: 2114 093d 2f9a 1c3e 7242 afbd aea0 293e
00000360: 8ffb 4e3e 7acb 683e 4d6b 813d d33f a63c
00000370: 9830 00be 4fc5 0f3d dd4a 28be 5c91 ea3d
00000380: 185a dc3c 6c0b 53be e523 803c bf98 c0bd
00000390: a481 d83d e760 64be f748 81bd 5886 0cbe
000003a0: b6ee cabd a2ee 22be a1dc 523e 8187 5dbe
000003b0: f922 4fbe 17e5 293e 1b09 3abd 8ce2 18bd
000003c0: 1523 3ebc 65f0 1ebe a8d3 5ebd b569 37be
000003d0: 0108 2dbe 15b5 29bd 3458 623e 50de 703e
000003e0: 8120 0dbd 30a2 82be 79ac 9ebd d98f 8dbd
000003f0: e204 0dbe de37 5dbd 783f 53be e030 92bd

net.0.bias f4 [192]
0.12882693 -0.20522755 -0.040355243 -0.21064284 -0.22227015 -0.073492296 -0.18287338 -0.09803553
-0.034017622 -0.15982087 0.21098982 0.10513492 0.13974456 0.07594132 -0.19607987 -0.09699749
-0.07704413 0.16286667 -0.062335256 -0.22429144 0.0023862743 -0.18124166 0.090005785 -0.16505079
0.11456912 0.07470841 -0.15146808 0.12738451 -0.06506952 0.07309378 0.030338256 -0.08343697
0.17906322 0.05185309 -0.09318897 0.0026466888 0.14384985 -0.14974414 0.18184844 0.21410885
0.23795852 -0.22147797 -0.0019897704 0.122019574 -0.030934835 -0.0437571 -0.13531074 -0.024723118
-0.08340212 -0.22077653 -0.20952205 -0.23546918 0.18200983 -0.09483157 0.04292571 0.06298858
-0.25942233 -0.2086855 0.012705121 0.13389519 0.060024496 -0.024391165 -0.12758744 -0.06435994
-0.06225746 -0.10924981 -0.16298568 -0.18931876 0.20198445 -0.13439082 -0.099842064 -0.04016645
0.103060886 0.054348927 0.23037408 0.20727989 0.20660707 0.13611253 -0.099341236 -0.061276745
0.21510358 0.067381404 -0.005968783 0.21743971 -0.18510677 -0.0685266 0.12199305 0.17607749
-0.088037364 0.18617445 -0.2201573 0.027593616 0.21952158 -0.002539884 0.17761825 0.15601489
-0.18291698 -0.14311314 0.0029802052 0.16241775 -0.12951888 0.00757511 -0.16143547 -0.21754399
-0.22128199 0.13165742 0.060793005 -0.045102395 -0.13569874 -0.22708324 -0.03684476 0.0499819
-0.17254676 -0.14015536 0.19212817 0.15551195 0.13100004 -0.26263964 0.1305039 -0.14235531
0.19403613 -0.126869 -0.12164557 0.028800102 -0.0052134395 -0.25732255 -0.12554258 0.2573837
-0.060293805 -0.1616523 0.04496731 0.06673526 -0.24088432 -0.052171532 0.0065883505 0.09356318
-0.061611075 0.027320271 0.14618176 -0.0785264 0.012751566 -0.1446801 -0.06370821 -0.012630128
-0.0056153676 0.066539556 0.077841744 0.14435327 -0.11451219 -0.12080998 -0.09945666 -0.032048408
0.09543827 -0.063889705 -0.1067088 0.21139994 0.00062854984 0.18349363 0.0006628064 -0.005709652
-0.17068511 -0.020533595 -0.001572197 0.25280905 0.23536739 0.119722895 -0.21480404 0.18113303
-0.230398 0.10522288 0.12719971 -0.1802461 -0.18259495 -0.17527404 -0.19066489 0.11782562
0.12675638 -0.06622639 -0.018522283 0.19977568 -0.058217615 -0.13088934 0.043699507 -0.104535855
0.03895896 0.09358791 0.18441442 -0.17548522 0.12455285 -0.11303495 0.0019467275 -0.087373845
00000000: 35eb 033e 2c27 52be 8a4b 25bd c2b2 57be
00000010: c99a 63be 2183 96bd 2943 3bbe dac6 c8bd
00000020: 1056 0bbd 15a8 23be b70d 583e fa50 d73d
00000030: 3319 0f3e 1f87 9b3d 29c9 48be 9fa6 c6bd
00000040: 50c9 9dbd 85c6 263e 4153 7fbd a8ac 65be
00000050: 0a63 1c3b 6a97 39be f454 b83d 1303 29be
00000060: 37a3 ea3d b900 993d 731a 1bbe 1671 023e
00000070: 2b43 85bd 31b2 953d ef87 f83c 01e1 aabd
00000080: 595c 373e e863 543d dcd9 bebd 1274 2d3b
00000090: 604d 133e 8756 19be 7a36 3a3e 5a3f 5b3e
000000a0: 66ab 733e 1fcb 62be cf66 02bb 66e5 f93d
000000b0: 0d6b fdbc a53a 33bd e68e 0abe 2388 cabc
000000c0: bbce aabd 3e13 62be f38c 56be d51e 71be
000000d0: c960 3a3e 0e37 c2bd dfd2 2f3d 2800 813d
000000e0: 01d3 84be a7b1 55be 2429 503c d21b 093e
000000f0: 3fdc 753d fbcf c7bc 48a6 02be 25cf 83bd
00000100: ae01 7fbd 5dbe dfbd b8e5 26be c7dc 41be
00000110: 03d5 4e3e bf9d 09be ff79 ccbd 9385 24bd
00000120: 9611 d33d fb9c 5e3d 2fe7 6b3e 2e41 543e
00000130: ce90 533e 1561 0b3e 6b73 cbbd 53fd 7abd
00000140: 1d44 5c3e 43ff 893d c895 c3bb 84a8 5e3e
00000150: a18c 3dbe ad57 8cbd 7ed7 f93d a84d 343e
00000160: ef4c b4bd 84a4 3e3e ea70 61be 020c e23c
00000170: 44ca 603e 2f74 26bb 8fe1 353e 5ec2 1f3e
00000180: 974e 3bbe 408c 12be 8c4f 433b d750 263e
00000190: 99a0 04be a138 f83b 574f 25be dac3 5ebe
000001a0: bf97 62be 34d1 063e 1602 793d 4abd 38bd
000001b0: 9cf4 0abe 8288 68be 88ea 16bd d2b9 4c3d
000001c0: 19b0 30be e384 0fbe 3fbd 443e 863e 1f3e
000001d0: e024 063e b478 86be d0a2 053e 97c5 11be
000001e0: 68b1 463e f2e9 01be 5021 f9bd 31ee eb3c
000001f0: 80d5 aabb c8bf 83be 3c8e 00be ccc7 833e
00000200: a3f6 76bd 2e88 25be a42f 383d 7fac 883d
00000210: 61aa 76be d1b1 55bd 17e3 d73b 0d9e bf3d
00000220: e55b 7cbd c3ce df3c acb0 153e 73d2 a0bd
00000230: f2eb 503c 0527 14be 7379 82bd 99ee 4ebc
00000240: 1e01 b8bb e445 883d 7e6b 9f3d 58d1 133e
00000250: 5e85 eabd 396b f7bd efaf cbbd 3145 03bd
00000260: 2475 c33d 9bd8 82bd 258a dabd 3a79 583e
00000270: 44c5 243a c1e5 3b3e 2fc0 2d3a 0818 bbbb
00000280: 14c8 2ebe 1236 a8bc 2d12 ceba 3070 813e
00000290: 2604 713e 4731 f53d 97f5 5bbe f07a 393e
000002a0: 74ed 6bbe 187f d73d a440 023e 6f92 38be
000002b0: 2cfa 3abe 0a7b 33be a83d 43be 8f4e f13d
000002c0: 6dcc 013e b4a1 87bd 0bbc 97bc ff91 4c3e
000002d0: 9875 6ebd db07 06be 41fe 323d e516 d6bd
000002e0: 6e93 1f3d 05ab bf3d 22d7 3c3e 66b2 33be
000002f0: 9115 ff3d de7e e7bd 5629 ff3a 0ff1 b2bd

net.3.weight f4 [96, 192]
0.064323016 -0.077723935 0.016947253 -0.029988395 0.052754603 0.0103235645 -0.096277684 0.020933844
-0.083794266 0.054537963 -0.039671764 0.05496999 0.039107006 0.011276374 -0.04351231 0.019008279
-0.066927426 -0.08246434 -0.02910526 0.040645935 0.003902492 -0.061252512 0.06855494 0.031310305
0.08048043 0.009405272 0.039923187 0.059061635 -0.080708794 0.07586299 -0.03649905 0.03216777
-0.041069623 0.053803887 0.066990286 0.08453797 0.04877603 0.026359132 0.05840595 -0.010209874
0.021800037 0.035055287 -0.0708621 0.0038368683 0.06017141 0.016113853 -0.06105445 -0.055455748
0.0061853863 -0.026524082 0.07151959 0.00082488026 -0.016817063 0.0022927125 0.05610752 -0.05876298
0.072540924 -0.09083203 -0.042387065 -0.029329365 0.05855399 -0.035806574 0.043480642 0.050197788
0.055604648 0.07146425 -0.056268018 -0.023444444 0.036252644 0.0057439297 -0.08594409 -0.0117601
-0.07319285 -0.0019575062 0.0018421215 -0.04379765 -0.03593011 0.0262762 0.02978568 -0.0134752765
0.06062531 -0.06718962 0.018898137 0.04458155 0.03438274 0.04453835 0.04529911 -0.0011854693
0.044067588 0.025977988 -0.01626881 0.015900219 -0.053840417 -0.07320788 0.03195894 0.08302139
0.07880073 -0.0072135604 -0.03361872 -0.06653122 -0.00762574 0.034941126 -0.015603324 -0.015623658
-0.04812574 -0.052462913 0.048003625 -0.048830204 -0.004570824 -0.028239258 0.026430424 0.034678686
-0.043370366 0.068649635 0.060902964 0.07626493 -0.06365147 -0.035150334 0.05680047 0.016920084
0.023465363 -0.03826258 -0.060019765 0.032322235 -0.061110385 0.062332712 -0.0073528104 0.048987675
-0.059334982 0.03986016 -0.051146116 -0.0064084684 0.012310851 0.02264691 0.03985194 -0.009134556
-0.09905656 -0.021006357 -0.0050242376 0.08717746 0.012719178 -0.053221423 0.03886952 -0.020354751
0.032841895 -0.036169164 0.035622515 -0.027491804 0.021868 -0.04829155 0.024734411 0.0009320499
-0.062969595 0.0354227 0.034824632 0.044591937 -0.016116282 0.058788337 -0.03083438 -0.056099508
0.0007516444 0.006535346 -0.054903287 0.06559872 -0.027642434 0.0775907 -0.052745555 -0.009268464
-0.039624784 0.023820886 0.07548654 -0.09722659 0.0026458525 -0.005771255 5.62895e-06 0.019305369
-0.026160546 -0.052365407 0.0049821245 0.035532076 0.058238465 -0.042726558 0.050722156 0.05844324
-0.003336422 0.05206223 -0.06045283 -0.10908278 -0.03943684 0.038521975 -0.051824436 -0.060782425
0.043112915 0.027321553 -0.06281334 0.0111762835 0.06223352 0.009616718 -0.0063078217 0.04826104
0.0028080007 -0.0067392923 -0.045709986 0.042824633 -0.0106473705 -0.034766927 -0.030442988 0.028635796
0.040930957 0.019498572 -0.09073367 0.010700922 0.058691174 -0.010552142 -0.023831727 -0.044991408
0.09995408 0.06704788 0.063155234 0.026984684 0.02982786 0.03107231 -0.057884745 -0.026300868
-0.06179598 -0.0743343 0.112988226 0.023744682 0.008606745 0.026172841 0.02546024 -0.046296563
-0.026598766 0.04985096 0.010737235 -0.055672523 -0.0015211657 0.0018913791 -0.042060014 -0.06836334
-0.01824463 -0.077514075 -0.095686495 0.004852207 0.009989001 0.033428676 0.06497832 0.016814014
0.05927865 -0.06890979 0.044671025 -0.0076471986 -0.06319227 -0.09938542 0.05364888 -0.0002140431
00000000: c9bb 833d ba2d 9fbd f7d4 8a3c 39aa f5bc
00000010: 3615 583d 2b24 293c 3c2d c5bd 747d ab3c
00000020: 549c abbd 3363 5f3d dc7e 22bd 3628 613d
00000030: ab2e 203d 8ac0 383c f739 32bd 40b7 9b3c
00000040: 3f11 89bd 10e3 a8bd 276e eebc 5a7c 263d
00000050: f4c0 7f3b eae3 7abd 8866 8c3d 3c3f 003d
00000060: ecd2 a43d 9218 1a3c 7f86 233d 9dea 713d
00000070: a74a a5bd 0e5e 9b3d 0780 15bd 5ac2 033d
00000080: 9f38 28bd 7761 5c3d 3432 893d 3e22 ad3d
00000090: 60c9 473d 1bef d73c 143b 6f3d 5147 27bc
000000a0: fe95 b23c 2296 0f3d 2620 91bd f873 7b3b
000000b0: 4c76 763d 3301 843c 3b14 7abd 9125 63bd
000000c0: c8ae ca3b 0849 d9bc dd78 923d c73c 583a
000000d0: f0c3 89bc 5541 163b 00d1 653d 73b1 70bd
000000e0: 5690 943d 2506 babd 0f9e 2dbd 2344 f0bc
000000f0: 4fd6 6f3d eaa9 12bd c218 323d 329c 4d3d
00000100: b3c1 633d d95b 923d 4b79 66bd 900e c0bc
00000110: a77d 143d 9337 bc3b 7403 b0bd 6fad 40bc
00000120: 22e6 95bd 8149 00bb 5773 f13a 2a65 33bd
00000130: 732b 13bd 2f41 d73c 1901 f43c 68c7 5cbc
00000140: 3f52 783d b69a 89bd 44d0 9a3c 259b 363d
00000150: ead4 0c3d d86d 363d 8f8b 393d c061 9bba
00000160: 3780 343d cacf d43c 2b46 85bc 2d41 823c
00000170: c587 5cbd 03ee 95bd 61e7 023d 1e07 aa3d
00000180: 4762 a13d bb5f ecbb c8b3 09bd 8541 88bd
00000190: 58e1 f9bb 6d1e 0f3d 16a5 7fbc 5ffa 7fbc
000001a0: 7f1f 45bd 5ae3 56bd 739f 443d 2e02 48bd
000001b0: dac6 95bb 0456 e7bc 9e84 d83c 3d0b 0e3d
000001c0: 20a5 31bd 2e98 8c3d 6375 793d ca30 9c3d
000001d0: b45b 82bd ccf9 0fbd 9ca7 683d fd9b 8a3c
000001e0: 6f3a c03c 39b9 1cbd 49d7 75bd 5264 043d
000001f0: e24e 7abd 9650 7f3d d8ef f0bb 4da7 483d
00000200: 3d09 73bd 6844 233d 977e 51bd 21fe d1bb
00000210: 74b3 493c 0386 b93c ca3b 233d 1ba9 15bc
00000220: 2ade cabd 8615 acbc 5ca2 a4bb 198a b23d
00000230: 1964 503c b5fe 59bd a535 1f3d 02bf a6bc
00000240: 3985 063d 1e26 14bd eae8 113d 7e36 e1bc
00000250: 8524 b33c 5ccd 45bd d29f ca3c cf54 743a
00000260: 34f6 80bd 6517 113d 46a4 0e3d 09a6 363d
00000270: 4b06 84bc 0acc 703d 6298 fcbc 99c8 65bd
00000280: 000a 453a 7526 d63b 45e2 60bd 9f58 863d
00000290: 6372 e2bc dfe7 9e3d b90b 58bd c1da 17bc
000002a0: 994d 22bd 0524 c33c b098 9a3d bc1e c7bd
000002b0: 0a66 2d3b cc1c bdbb 50e0 bc36 4b26 9e3c
000002c0: a44e d6bc 1c7d 56bd 1741 a33b 158a 113d
000002d0: 758b 6e3d 0b02 2fbd 09c2 4f3d 2e62 6f3d
000002e0: dfa7 5abb 343f 553d 639d 77bd cb66 dfbd
000002f0: 8688 21bd 38c9 1d3d dc45 54bd fef6 78bd
00000300: 2b97 303d 73d1 df3c 48a4 80bd bb1c 373c
00000310: 93e8 7e3d 708f 1d3c d8b1 cebb 5ead 453d
00000320: 6f06 383b 48d5 dcbb 653a 3bbd e268 2f3d
00000330: 4f72 2ebc c467 0ebd 9363 f9bc 9e95 ea3c
00000340: 38a7 273d 78bb 9f3c 93d2 b9bd ec52 2f3c
00000350: 2866 703d e4e2 2cbc c13a c3bc e948 38bd
00000360: bab4 cc3d 6650 893d 8857 813d fc0e dd3c
00000370: 8e59 f43c 5b8b fe3c 8e18 6dbd eb74 d7bc
00000380: c81d 7dbd 953c 98bd 5f66 e73d 3584 c23c
00000390: 4e03 0d3c 6d68 d63c fe91 d03c 77a1 3dbd
000003a0: a8e5 d9bc 8530 4c3d 3aeb 2f3c df08 64bd
000003b0: da61 c7ba 27e8 f73a 1f47 2cbd 1402 8cbd
000003c0: c375 95bc b3bf 9ebd 48f7 c3bd 43ff 9e3b
000003d0: e8a8 233c 82ec 083d 5a13 853d 8bbd 893c
000003e0: 2bce 723d 9320 8dbd f7f8 363d 5a95 fabb
000003f0: f36a 81bd 958a cbbd eebe 5b3d c270 60b9

net.3.bias f4 [96]
-0.0060521415 -0.0023420872 0.06610082 -0.03482116 -0.008410381 0.004280709 -0.049297627 -0.061872978
0.02124266 -0.034280133 -0.052315935 -0.09340422 -0.04070867 0.002470974 -0.07108505 0.091929175
-0.034009494 -0.05834279 0.014487709 -0.08604704 -0.016789632 0.04090961 -0.048597313 0.076527156
-0.0142469425 -0.016179724 -0.04041571 -0.023694739 -0.049926735 -0.05656785 0.025374994 0.046442706
0.0146103995 0.01811509 -0.063826755 -0.07055932 -0.056810856 -0.0064834827 0.016143458 0.0022892614
-0.006959032 -0.032166734 0.0074351584 -0.048026435 0.008554372 -0.024477737 -0.07351064 0.0037102688
0.04616009 -0.033661433 -0.0201352 -0.060174976 0.011809381 -0.033694092 0.058626547 -0.0385666
0.056818683 -0.074053444 0.048693452 -0.04016648 0.01932749 0.042275697 -0.008365328 0.031245373
-0.010988268 0.069938526 0.049242433 0.050002627 -0.019069057 0.07173595 -0.016942041 0.04382611
0.04344528 -0.044731006 0.0028035347 -0.026325235 -0.07572453 0.00839216 -0.052847534 0.069135465
-0.044701673 0.01936823 -0.04338473 0.027957704 -0.054972406 -0.08114571 -0.047357436 0.05045713
-0.011984655 0.016431157 -0.039914574 0.078164004 0.021371802 -0.07612681 -0.013645623 -0.05991837
00000000: 0b51 c6bb b47d 19bb de5f 873d a2a0 0ebd
00000010: b2cb 09bc 3145 8c3b 4fec 49bd 856e 7dbd
00000020: 1605 ae3c 5369 0cbd 3c49 56bd b64a bfbd
00000030: 22be 26bd 11f0 213b 0a95 91bd 5d45 bc3d
00000040: 8a4d 0bbd d9f8 6ebd db5d 6d3c 6e39 b0bd
00000050: 698a 89bc d690 273d fa0d 47bd 45ba 9c3d
00000060: 026c 69bc 578b 84bc f28a 25bd 781b c2bc
00000070: fa7f 4cbd b1b3 67bd 38df cf3c b53a 3e3d
00000080: 7560 6f3c 1966 943c 9ab7 82bd 6881 90bd
00000090: 80b2 68bd 6573 d4bb 493f 843c 6f07 163b
000000a0: 9708 e4bb 44c1 03bd a1a2 f33b 5eb7 44bd
000000b0: a327 0c3c 8985 c8bc bf8c 96bd fb27 733b
000000c0: 5d12 3d3d 92e0 09bd 93f2 a4bc 097a 76bd
000000d0: 227c 413c d102 0abd 6422 703d 03f8 1dbd
000000e0: b5ba 683d 55a9 97bd c972 473d 9b85 24bd
000000f0: af54 9e3c 4829 2d3d bb0e 09bc 4cf6 ff3c
00000100: 2308 34bc ee3b 8f3d 6fb2 493d 8ecf 4c3d
00000110: b636 9cbc 4cea 923d 09ca 8abc 0283 333d
00000120: aef3 313d dc37 37bd 82bb 373b 05a8 d7bc
00000130: 7615 9bbd 457f 093c a876 58bd e596 8d3d
00000140: 1a19 37bd 1faa 9e3c 30b4 31bd 8e07 e53c
00000150: bf2a 61bd b92f a6bd dff9 41bd 23ac 4e3d
00000160: 495b 44bc a29a 863c 777d 23bd 7314 a03d
00000170: eb13 af3c 5fe8 9bbd e491 5fbc f76c 75bd

net.6.weight f4 [48, 96]
0.02209994 0.025560701 -0.042632915 0.03431139 -0.010306973 0.06659588 -0.029041734 0.02334431
0.09622256 0.015268544 0.051974863 -0.00037586695 0.022917833 0.012152541 -0.08128675 0.06312554
-0.02388112 -0.08765614 -0.08611539 0.043167204 -0.120577745 0.0454911 -0.12282933 0.11177822
-0.04418067 -0.1456863 -0.06341589 -0.011946586 -0.008169024 -0.0870848 -0.111860886 0.027037684
0.026146378 0.0726206 0.023676742 -0.07630089 -0.0037540034 -0.050030217 0.07885818 -0.06622489
-0.06189008 -0.05267361 -0.06440404 -0.10674172 0.002628894 0.030869158 0.010756791 0.032368813
0.0883978 0.05694035 -0.08192892 -0.08642742 -0.093884565 0.0017537207 0.093573295 -0.040076934
0.1041152 0.01822003 -0.044899687 0.06730375 -0.042882875 -0.005962182 0.008594053 -0.03967517
-0.03426877 0.08951957 0.03161424 -0.014932427 -0.09643621 0.00019939744 -0.031173233 0.05264464
0.021296078 0.00086422014 -0.05051883 0.07577687 -0.041732624 0.050797675 -0.043941297 -0.08911104
-0.08791601 0.057389807 0.057633977 0.02160997 0.06919011 0.09167921 0.029117258 -0.010055349
-0.08223898 0.007175198 0.0051654205 0.046405505 -0.04633457 0.07978007 0.022672748 -0.02000896
0.04900288 0.0649139 0.094031654 -0.035753187 -0.045635983 -0.011427625 0.012233232 0.017619701
-0.09547014 0.07758666 0.12073296 -0.042579226 -0.05309422 0.03480896 -0.012074824 -0.0040148953
0.08702637 -0.06609261 -0.01753991 -0.040798046 -0.08487102 0.07870558 -0.022748258 -0.03987494
0.049975455 0.06520772 -0.09379163 0.03629178 -0.10088869 -0.069368474 -0.041229457 -0.097377725
0.056494746 0.022770757 0.02256205 -0.03880445 0.045086384 0.013933764 -0.11482803 0.018956508
-0.0114019485 -0.07361336 0.055304 0.044879142 -0.10072354 0.0948707 0.09390143 -0.07066137
-0.05961456 -0.0027494142 -0.060956955 0.08500586 0.03751755 0.09817272 -0.0956944 -0.018752312
-0.0312797 0.082397744 0.027991034 -0.003373593 0.047333345 -0.08933436 -0.064265944 0.08708917
0.0044342913 0.05706241 -0.09219135 -0.061477166 -0.023970872 0.0525083 -0.03660768 -0.03165557
-0.06549452 -0.08266532 0.07907886 0.021752506 -0.03269752 -0.059286553 0.016829338 0.05060732
0.060240425 0.13092762 -0.06180362 -0.07010722 -0.010606432 -0.03581819 -0.018550899 -0.13055326
-0.015269751 0.10364342 -0.09936429 0.010526328 -0.06815896 0.04115448 0.01136134 0.08374822
-0.12557004 -0.07002918 0.047045458 -0.010611105 0.10509426 0.0222476 0.033168737 -0.008847883
0.09710039 -0.009634353 0.022241203 0.020887246 0.050874285 -0.035493176 0.06340328 -0.019143984
-0.080597214 -0.10361985 0.013661706 0.061595242 -0.04714838 0.040793702 0.024603715 0.007644718
-0.00951761 -0.0031996293 0.07232055 0.075666 0.02007663 -0.100501135 0.076346464 -0.08017102
0.028795032 -0.094447255 -0.0580569 -0.009197261 0.086543985 -0.08641826 -0.04155668 -0.04025636
0.069688186 -0.06979008 0.06958717 -0.002376449 0.029497735 0.0139007345 0.047285117 0.0077744364
0.087413214 -0.09324898 0.06793335 -0.0431571 0.04316301 0.10224843 0.097028814 -0.039801337
-0.020153394 -0.069197185 -0.109838545 0.03625302 0.052719496 -0.059104532 -0.0041272114 -0.043363824
00000000: ef0a b53c ad64 d13c da9f 2ebd 1a8a 0c3d
00000010: 94de 28bc 6c63 883d eee8 edbc 913c bf3c
00000020: 5510 c53d ea28 7a3c 98e3 543d 0210 c5b9
00000030: 2ebe bb3c 741b 473c ab79 a6bd f747 813d
00000040: 57a2 c3bc 1085 b3bd 445d b0bd 18d0 303d
00000050: 77f1 f6bd e054 3a3d f28d fbbd fbeb e43d
00000060: caf6 34bd ca2e 15be 31e0 81bd 9dbb 43bc
00000070: 5fd7 05bc 8459 b2bd 5217 e5bd 227e dd3c
00000080: ee30 d63c 1cba 943d baf5 c13c a443 9cbd
00000090: ba05 76bb 7cec 4cbd 6680 a13d eaa0 87bd
000000a0: 7480 7dbd 49c0 57bd 44e6 83bd 679b dabd
000000b0: 8649 2c3b 51e1 fc3c 403d 303c 2995 043d
000000c0: e809 b53d 493a 693d 59ca a7bd dc00 b1bd
000000d0: 8d46 c0bd 1add e53a 5ba3 bf3d b627 24bd
000000e0: 5a3a d53d 2c42 953c bce8 37bd 8cd6 893d
000000f0: f4a5 2fbd 685e c3bb 12ce 0c3c 6e82 22bd
00000100: 695d 0cbd 0956 b73d ef7d 013d 23a7 74bc
00000110: 5980 c5bd 5815 5139 025f ffbc e8a1 573d
00000120: 1d75 ae3c d58c 623a d5ec 4ebd e730 9b3d
00000130: d4ef 2abd 3911 503d cafb 33bd d97f b6bd
00000140: 4f0d b4bd 9311 6b3d 9b11 6c3d 6407 b13c
00000150: 8bb3 8d3d 4fc2 bb3d 5187 ee3c 31bf 24bc
00000160: e96c a8bd ec1d eb3b b042 a93b b313 3e3d
00000170: 51c9 3dbd bc63 a33d 33bc b93c d5e9 a3bc
00000180: 3eb7 483d 94f1 843d ab93 c03d ef71 12bd
00000190: ccec 3abd ef3a 3bbc e56d 483c 3157 903c
000001a0: d985 c3bd c1e5 9e3d d842 f73d 8e67 2ebd
000001b0: 5379 59bd d793 0e3d 7cd5 45bc 628f 83bb
000001c0: e23a b23d 905b 87bd dbaf 8fbc da1b 27bd
000001d0: dbd0 adbd 6430 a13d 8e5a babc e853 23bd
000001e0: 10b3 4c3d a08b 853d d315 c0bd b1a6 143d
000001f0: bb9e cebd 0f11 8ebd 38e0 28bd f96d c7bd
00000200: 0967 673d bd89 ba3c 0cd4 b83c 6af1 1ebd
00000210: 80ac 383d 714a 643c f52a ebbd ae4a 9b3c
00000220: 3dcf 3abc 9ac2 96bd 7286 623d 31d3 373d
00000230: 2548 cebd 924b c23d 654f c03d e9b6 90bd
00000240: 662e 74bd 842f 34bb 00ae 79bd 8d17 ae3d
00000250: 01ac 193d c70e c93d 6dfb c3bd 739e 99bc
00000260: 251f 00bd 26c0 a83d 744d e53c 8017 5dbb
00000270: 9ce0 413d eff4 b6bd dd9d 83bd cf5b b23d
00000280: 884d 913b 46ba 693d d2ce bcbd 7bcf 7bbd
00000290: 905e c4bc f112 573d eff1 15bd 45a9 01bd
000002a0: fe21 86bd 6f4c a9bd 19f4 a13d 5032 b23c
000002b0: d6ed 05bd 75d6 72bd aedd 893c 9f49 4f3d
000002c0: aabe 763d e411 063e cb25 7dbd 6094 8fbd
000002d0: 9ac6 2dbc 18b6 12bd 0ef8 97bc c1af 05be
000002e0: fa2d 7abc 0043 d43d 817f cbbd 9f76 2c3c
000002f0: ed96 8bbd 9a91 283d ea24 3a3c 3084 ab3d
00000300: 6f95 00be 756b 8fbd bdb2 403d 33da 2dbc
00000310: a93b d73d 9940 b63c f1db 073d b6f6 10bc
00000320: 92dc c63d 68d9 1dbc 2f33 b63c bb1b ab3c
00000330: 8e61 503d 4b61 11bd 94d9 813d d8d3 9cbc
00000340: 2710 a5bd a536 d4bd 59d5 5f3c 4b4b 7c3d
00000350: a91e 41bd 4c17 273d bb8d c93c 8b80 fa3b
00000360: c0ef 1bbc dfb0 51bb cc1c 943d c7f6 9a3d
00000370: bf77 a43c 8ad3 cdbd 895b 9c3d b430 a4bd
00000380: 8fe3 eb3c 906d c1bd 12cd 6dbd 1cb0 16bc
00000390: f93d b13d 0ffc b0bd 5637 2abd dae3 24bd
000003a0: aeb8 8e3d 1aee 8ebd b883 8e3d 33be 1bbb
000003b0: 3ca5 f13c e8bf 633c 0aae 413d b3c0 fe3b
000003c0: b305 b33d 52f9 bebd a420 8b3d 80c5 30bd
000003d0: b2cb 303d a067 d13d 0bb7 c63d ba06 23bd
000003e0: bb18 a5bc 41b7 8dbd 08f3 e0bd 0c7e 143d
000003f0: 66f0 573d 9817 72bd 8f3d 87bb 449e 31bd

net.6.bias f4 [48]
0.075725764 -0.05798146 0.07121288 0.0656119 -0.057034813 -0.01677874 -0.08809639 -0.07202844
0.011347401 -0.048412353 0.025935503 0.052802365 -0.089195706 -0.011830656 0.11751699 -0.018620452
-0.06287786 -0.036547106 -0.0069666263 -0.10251472 0.031707123 -0.08224849 0.03621736 0.073877245
0.046233628 0.029205164 0.025958337 0.09231597 0.0813027 -0.007552239 -0.065329075 0.10045355
-0.023853488 -0.028949527 -0.07959022 -0.06612385 0.012366464 -0.059510868 0.117645666 -0.025379745
-0.061866555 -0.059884764 0.039217185 -0.078867204 0.13024579 0.15822347 -0.059735626 0.005714093
00000000: 1c16 9b3d f87d 6dbd 0fd8 913d 885f 863d
00000010: 569d 69bd 9173 89bc e16b b4bd a683 93bd
00000020: 73ea 393c 084c 46bd b176 d43c 4b47 583d
00000030: 3dac b6bd 5ed5 41bc bfac f03d eb89 98bc
00000040: 1cc6 80bd 6bb2 15bd 4c48 e4bb 3df3 d1bd
00000050: 54df 013d e571 a8bd a858 143d f44c 973d
00000060: 795f 3d3d ab3f ef3c 94a6 d43c 2810 bd3d
00000070: 0882 a63d c678 f7bb 40cb 85bd 97ba cd3d
00000080: 6468 c3bc 8f27 edbc 3200 a3bd f16b 87bd
00000090: b69c 4a3c abc1 73bd 36f0 f03d 2fe9 cfbc
000000a0: c967 7dbd ba49 75bd 33a2 203d 2185 a1bd
000000b0: 275f 053e 5505 223e 58ad 74bd 493d bb3b

net.9.weight f4 [1, 48]
-0.11384925 0.12979364 0.07753887 -0.123441 0.096592985 0.10219549 -0.113060586 -0.04208886
0.021262014 0.039871123 0.10142749 0.03821544 -0.116638035 0.07180072 -0.09964319 -0.09753536
-0.028914142 -0.0021828802 0.10317112 -0.06164028 0.032234505 0.08647928 0.062116623 -0.09186715
0.04679042 0.03545 0.110140994 -0.072431296 -0.003872662 0.12295778 0.10987775 -0.019590495
0.11163118 -0.057275288 -0.14555663 0.00023395881 -0.07054342 0.05318436 -0.15447396 0.0291191
0.10097019 0.0031038504 -0.12884593 0.0883598 -0.10016996 -0.08500644 0.009823507 0.024356877
00000000: cc29 e9bd a0e8 043e b3cc 9e3d a3ce fcbd
00000010: 8bd2 c53d de4b d13d 4f8c e7bd 5e65 2cbd
00000020: ad2d ae3c e74f 233d 37b9 cf3d cb87 1c3d
00000030: ecdf eebd 420c 933d bb11 ccbd 9ec0 c7bd
00000040: 5add ecbc a70e 0fbb 614b d33d 857a 7cbd
00000050: 5408 043d 0c1c b13d 006e 7e3d d824 bcbd
00000060: 50a7 3f3d 0534 113d 9a91 e13d dc56 94bd
00000070: 7dcc 7dbb 4ad1 fb3d 9607 e13d 3f7c a0bc
00000080: e39e e43d 7e99 6abd cc0c 15be d752 7539
00000090: 1279 90bd d8d7 593d 6c2e 1ebe 2e8b ee3c
000000a0: 75c9 ce3d f869 4b3b 30f0 03be fcf5 b43d
000000b0: e825 cdbd db17 aebd c6f2 203c 1388 c73c
