models/nn_5m.pt (torch, 42109 bytes, 5 tensors)

fc1.weight f4 [128, 11]
0	0xbe049e42	-0.12950996
1	0x3ddfc242	0.109257236
2	0xbe434e28	-0.19072783
3	0x3e40a436	0.18812642
4	0x3e4c69fd	0.19962306
5	0xbe90af25	-0.28258625
6	0x3e67e1ff	0.22644804
7	0x3c3cddab	0.011527459
8	0xbe3638de	-0.1779513
9	0xbd67d799	-0.056602094
10	0x3e1ce821	0.15322925
11	0xbe845be1	-0.25851348
12	0xbe0f3a55	-0.13987096
13	0x3e3f5d27	0.18687879
14	0xbe14e9c0	-0.14542294
15	0x3d106cc0	0.035259962
16	0x3e28a3c7	0.16468726
17	0xbe747a28	-0.23874724
18	0x3d8d0b7a	0.068869546
19	0x3e262b3a	0.16227427
20	0xbe3a7d92	-0.18211964
21	0xbd2e96ca	-0.042624272
22	0x3d6ab681	0.057302956
23	0xbe979da7	-0.29612467
24	0xbb55f9db	-0.0032650146
25	0x3e15103f	0.14556979
26	0x3cfe4188	0.031037107
27	0x3e8d0a12	0.27546746
28	0x3e1a26bd	0.1505384
29	0xbe96d3c6	-0.29458445
30	0x3de27027	0.110565476
31	0x3c73658f	0.014855756
32	0x3e6e36d9	0.2326311
33	0xbe5fa9a4	-0.21842057
34	0xbe779566	-0.24178085
35	0x36906880	4.3037e-06
36	0xbe8762e3	-0.26442632
37	0xbc949aa1	-0.018140139
38	0x3e4e69b1	0.20157506
39	0x3d3b0814	0.045662
40	0x3e85587b	0.26044068
41	0xbe4567d5	-0.1927789
42	0xbe50ed5b	-0.20403044
43	0xbe65ebb4	-0.22453195
44	0xbe71182f	-0.23544382
45	0xbd97f117	-0.07419031
46	0xbe52d980	-0.20590782
47	0xbe8a7ed9	-0.27049902
48	0xbcfed649	-0.031108038
49	0xbe080d14	-0.13286239
50	0x3daead51	0.08529151
51	0xbd3c6199	-0.045991514
52	0xbdbfce72	-0.09365548
53	0x3dd19e87	0.10235315
54	0x3dd5a65b	0.104321204
55	0xbe25ce4b	-0.16191976
56	0xbe6617bc	-0.22469991
57	0xbe7810a7	-0.24225102
58	0xbe0db1f2	-0.13837412
59	0x3e36ef79	0.17864789
60	0xbe816834	-0.25274813
61	0x3e565080	0.20929146
62	0xbe1698ac	-0.14706677
63	0x3dd641ca	0.10461767
64	0xbd44facc	-0.04809074
65	0x3da71519	0.08158321
66	0xbe89542d	-0.26822034
67	0x3d9f1d28	0.07769233
68	0xbda4a6a8	-0.080396
69	0xbe0387de	-0.12844798
70	0xbe669411	-0.2251742
71	0x3e509fbe	0.20373437
72	0x3e8703fc	0.26370227
73	0x3e83cb4e	0.25741047
74	0x3d260b82	0.04053832
75	0x3e1d7cda	0.15379658
76	0xbc5afbe1	-0.013365717
77	0xbe64d7e3	-0.22347979
78	0xbe37483c	-0.17898649
79	0xbe289fbc	-0.16467184
80	0xbe955b7d	-0.29171363
81	0x3d945a1f	0.07243752
82	0x3e359dbb	0.1773595
83	0xbe205959	-0.15659083
84	0x3e4f8a47	0.20267592
85	0x3dd54dd6	0.10415237
86	0xbe5045f7	-0.2033919
87	0xbe68d4cb	-0.22737424
88	0x3e353e59	0.17699565
89	0x3cda2b53	0.026631987
90	0x3e6390cd	0.22223206
91	0x3dea61f4	0.11444464
92	0x3d781a09	0.060571704
93	0x3e1c5966	0.15268478
94	0xbd2131f9	-0.0393543
95	0x3e1bb40a	0.15205398
96	0xbd6001c6	-0.05468919
97	0x3d384c45	0.04499461
98	0x3e11e5e4	0.14247853
99	0xbe54e7dd	-0.20791574
100	0xbd1376fe	-0.03600215
101	0xbe84ba1f	-0.2592325
102	0x3e13e33e	0.14442155
103	0x3d351f42	0.044219263
104	0xbd95ad2d	-0.07308421
105	0x3df8de97	0.12151831
106	0x3e9da4f4	0.30789912
107	0x3e7e4e40	0.24834538
108	0xbdbec905	-0.09315685
109	0x3da0a5db	0.078441344
110	0xbe165367	-0.14680253
111	0x3d3e17cf	0.046409424
112	0x3e30a7a3	0.17251448
113	0xbdcabb51	-0.09899009
114	0x3e4ab289	0.19794668
115	0xbe952e10	-0.29136705
116	0x3e572dbe	0.21013543
117	0x3de37477	0.11106198
118	0x3e926e84	0.28599942
119	0x3e80229e	0.2502641
120	0xbe420e37	-0.18950735
121	0x3dce9cea	0.10088523
122	0xbe9c9bf8	-0.30587745
123	0x3e1cec00	0.15324402
124	0x3e8b75e0	0.2723837
125	0xbe6d9c09	-0.23204054
126	0x3e352b97	0.1769241
127	0x3d5351aa	0.051591553
128	0xbe8f4183	-0.2797967
129	0xbe1e85ad	-0.15480681
130	0x3e1c5d8d	0.15270062
131	0xbe95a74a	-0.29229194
132	0x3d476562	0.04868067
133	0xbe41aa57	-0.18912636
134	0x3b94f36f	0.004545621
135	0x3c223518	0.009900354
136	0xbe7649f1	-0.24051644
137	0x3e8530ae	0.26013702
138	0x3c0741e1	0.008255453
139	0x3e4e7716	0.20162615
140	0xbe88811a	-0.26660997
141	0x3ddbae8a	0.1072665
142	0x3e6b847e	0.2299976
143	0x3d700534	0.058598712
144	0x3e2bc501	0.1677437
145	0x3d4f3fc0	0.050597906
146	0x3da97269	0.08273775
147	0x3db97f21	0.09057451
148	0x3d78a5d0	0.060705006
149	0xbe6f10ef	-0.23346303
150	0xbe1124ea	-0.14174238
151	0x3e89a4aa	0.2688344
152	0xbea762f4	-0.32692683
153	0x3e403c98	0.18773115
154	0xbca29741	-0.019847514
155	0xbe04106e	-0.12896892
156	0xbe8e4726	-0.27788657
157	0xbe8f0053	-0.27929935
158	0xbc9ef1fd	-0.019402498
159	0x3e2cee62	0.16887811
160	0xbe5358fa	-0.2063941
161	0xbda80717	-0.08204477
162	0x3d8c18ff	0.06840705
163	0x3e8e22e0	0.27760983
164	0x3e1e4883	0.15457349
165	0x3e1d933d	0.15388198
166	0xbe932ec1	-0.28746608
167	0x3e12cb63	0.14335398
168	0x3d906d67	0.07052117
169	0xbe336351	-0.17518355
170	0xbe5db072	-0.2164934
171	0x3e5d4f3d	0.21612258
172	0xbe149725	-0.14510782
173	0x3e7a6cf9	0.24455632
174	0xbe4cd5ee	-0.20003483
175	0xbe84adab	-0.25913748
176	0x3e74557d	0.23860736
177	0x3d891c9b	0.06694909
178	0x3d0fa1f0	0.035066545
179	0x3d6974dd	0.056996215
180	0xbe1d4f56	-0.15362296
181	0x3e8497aa	0.2589696
182	0xbdafa03d	-0.08575485
183	0x3b029aad	0.001992862
184	0xbe861d37	-0.26194164
185	0x3e8dbda9	0.27683762
186	0xbe738154	-0.23779804
187	0x3d7ac645	0.06122424
188	0x3e6c0253	0.23047762
189	0x3da5daf2	0.08098401
190	0xbe93ad15	-0.2884299
191	0x3b6b7420	0.003592737
192	0xbe01d8db	-0.1268038
193	0xbdd5713e	-0.1042199
194	0xbe87dde2	-0.2653647
195	0x3e9e9ba5	0.30978122
196	0xbe7dd2e1	-0.24787475
197	0xbcf683f4	-0.030092217
198	0xbe352e17	-0.17693363
199	0x3e2627b0	0.16226077
200	0xbe41eb7f	-0.18937491
201	0x3dce17f9	0.10063166
202	0xbdc0a17e	-0.09405802
203	0x3e8ddb98	0.277066
204	0xbdc5ea82	-0.096638694
205	0xbe168da3	-0.14702468
206	0x3e42adbc	0.19011587
207	0xbd64c982	-0.055856235
208	0x3e09e56c	0.13466424
209	0x3d841142	0.06448604
210	0x3dce62ff	0.10077476
211	0x3de752de	0.112951025
212	0x3c04a046	0.008094853
213	0x3ca2659c	0.019823842
214	0x3d0ed3ee	0.03487008
215	0x3dca6c6b	0.0988396
216	0x3ccdef5b	0.025138548
217	0x3dc4be84	0.096066505
218	0x3c21f34a	0.009884665
219	0xbe8086c8	-0.2510283
220	0xbd563fc3	-0.0523069
221	0xbdac2157	-0.084047966
222	0xbdd112a5	-0.10208634
223	0xbe77ff10	-0.24218392
224	0xbe193ad9	-0.14963855
225	0x3dfc73f1	0.123268016
226	0xbe982d17	-0.297219
227	0x3e32c435	0.1745766
228	0x3e926acb	0.28597102
229	0x3daf8ac3	0.085713886
230	0x3e4e5fc4	0.20153719
231	0x3dab1088	0.083527625
232	0x3cb58826	0.022159647
233	0x3e17a511	0.14809062
234	0xbe87cc7c	-0.26523197
235	0x3e3210cf	0.17389224
236	0x3e8daa1e	0.27668852
237	0x3e9c3d25	0.305154
238	0xbd9ac09e	-0.0755627
239	0xbd4274d1	-0.047474686
240	0xbe2bc86a	-0.1677567
241	0xbe03f4e3	-0.12886386
242	0x3d4cbe04	0.0499859
243	0x3e25c68f	0.16189025
244	0x3da101e9	0.078616925
245	0xbe489cfd	-0.19591136
246	0x3b21dadb	0.0024697098
247	0xbd72b6ce	-0.059256367
248	0x3d0366e9	0.032080565
249	0xbe9477b7	-0.28997585
250	0x3e919206	0.2843172
251	0x3e6e30da	0.23260823
252	0x39b33bd7	0.00034186125
253	0x3e6c0dfb	0.23052208
254	0x3e847caf	0.25876376
255	0x3e57a0d1	0.2105744

fc1.bias f4 [128]
0	0xbe30e97c	-0.17276567
1	0xbc8b7282	-0.017022375
2	0x3d8d7c61	0.06908489
3	0x3e8faf4c	0.28063428
4	0x3c4db17e	0.0125545245
5	0xbc126a5f	-0.008936494
6	0x3e36fbd2	0.178695
7	0xbda057d7	-0.07829254
8	0x3df6f223	0.12057903
9	0xbe6c3faf	-0.23071168
10	0xbe42a735	-0.19009097
11	0x3e67c5ba	0.2263402
12	0xbe86ad21	-0.26303962
13	0xbdded816	-0.10881059
14	0xbe87b6c5	-0.2650663
15	0xbe440cfe	-0.19145581
16	0xbdafca23	-0.085834764
17	0x3dffb31f	0.124853365
18	0x3d3c127f	0.045916077
19	0xbe327e6c	-0.17431039
20	0x3dd2581d	0.102707125
21	0x3e4a244c	0.19740409
22	0xbe8057d9	-0.25067022
23	0x3da9187a	0.08256622
24	0x3e498463	0.19679408
25	0x3e85ce16	0.26133794
26	0x3dd2be78	0.10290235
27	0x3df1f32e	0.11813961
28	0xbd3521d5	-0.044221718
29	0x3db4ac97	0.088219814
30	0xbe328b10	-0.1743586
31	0xbe5c9fbc	-0.21545309
32	0x3cd77bc4	0.026304133
33	0x3e85cfc8	0.26135087
34	0x3e80df4b	0.2517036
35	0xbe96e344	-0.29470265
36	0x3e68013a	0.22656718
37	0xbd286922	-0.041115887
38	0xbd5753f4	-0.0525703
39	0xbe5f249f	-0.21791314
40	0xbe174fee	-0.14776585
41	0x3d9c244d	0.07624111
42	0x3e47af44	0.19500452
43	0x3e323d60	0.17406225
44	0x3e4abb56	0.19798025
45	0x3e3fc0db	0.18725912
46	0x3e463e48	0.19359696
47	0xbdfbb375	-0.12290088
48	0x3dc87a37	0.09788936
49	0xbc8bf137	-0.017082794
50	0x3ab3f579	0.0013729773
51	0x3d10a620	0.03531468
52	0xbdfb6629	-0.12275345
53	0xbe3cdcd9	-0.18443622
54	0x3e8f5029	0.27990845
55	0xbe3ea627	-0.1861807
56	0xbd97ec54	-0.07418123
57	0x3db01760	0.085982084
58	0x3e1c5af9	0.15269078
59	0x3d45d383	0.048297416
60	0x3ce116a2	0.027476612
61	0xbe2d6373	-0.16932468
62	0xbe4959ab	-0.19663112
63	0xbd04f82a	-0.03246323
64	0xbdc28b1b	-0.094991885
65	0xbd93f658	-0.07224721
66	0x3d05dc48	0.03268078
67	0xbe8cf65e	-0.27531713
68	0x3d960f87	0.0732718
69	0xbe0efa13	-0.13962583
70	0x3d825108	0.06363112
71	0x3e5fd341	0.2185793
72	0x3d5cb4f4	0.053883508
73	0x3e8c671c	0.27422416
74	0xbe4a6609	-0.19765486
75	0xbdf8bcd8	-0.12145394
76	0x3e20ada9	0.15691246
77	0x3d9c2315	0.07623879
78	0x3d0b21c7	0.03396776
79	0xbe2ff66d	-0.17183848
80	0x3e154a4e	0.14579126
81	0xbe3106b0	-0.17287707
82	0xbe190209	-0.14942183
83	0x3d1c8d4a	0.03822068
84	0x3e5cd1fa	0.21564475
85	0x3e8b6f2a	0.2723325
86	0xbe7c7393	-0.24653463
87	0xbddb44c5	-0.10706476
88	0x3d294f00	0.041335106
89	0xbe8b6a9b	-0.2722977
90	0x3b4816a4	0.0030531073
91	0x3e515852	0.20443848
92	0x3db7876e	0.08961378
93	0xbe83ecd1	-0.25766614
94	0xbe51d03a	-0.20489588
95	0xbcf0ce09	-0.02939512
96	0xbe63bb8f	-0.22239517
97	0x3da16c7c	0.0788202
98	0x3e813af8	0.25240302
99	0x3d2d3108	0.042283088
100	0xbe8ba8e1	-0.27277282
101	0x3d6acd01	0.057324413
102	0xbd0eb459	-0.03483996
103	0xbde2f068	-0.1108101
104	0x3c1a06ce	0.009401036
105	0xbe91fe4b	-0.28514323
106	0xbe11d0b8	-0.14239776
107	0xbe65bf67	-0.22436295
108	0xbe03eaae	-0.12882492
109	0xbe816c80	-0.2527809
110	0xbe85dd40	-0.26145363
111	0x3e652719	0.22378196
112	0xbe89945e	-0.26871008
113	0xbe402499	-0.18763961
114	0xbdb349f0	-0.08754337
115	0xbe988b22	-0.2979365
116	0xbda0c40e	-0.078498945
117	0x3dadc5c4	0.084849864
118	0x3da2f172	0.07956208
119	0xbd16fead	-0.03686397
120	0xbe26891e	-0.16263244
121	0xbe81fa4c	-0.25386274
122	0x3e0ff627	0.14058743
123	0x3dc49670	0.09599006
124	0xbd4c3757	-0.049857464
125	0x3dec88b8	0.115495145
126	0x3e5dce01	0.21660616
127	0x3e38d2ce	0.18049166

fc2.weight f4 [64, 128]
0	0xbd99ec4d	-0.07515774
1	0x3cd7c95d	0.026341135
2	0xbd12f077	-0.035873856
3	0xbd05ab1a	-0.03263388
4	0xbda2a3c1	-0.0794139
5	0x3db0320e	0.08603297
6	0x3c4a544e	0.012349201
7	0x3db5fe43	0.08886387
8	0xbd57d33c	-0.052691683
9	0x3c0f921d	0.008762863
10	0xbd8ab3dc	-0.06772587
11	0xbd18e542	-0.037328012
12	0x3d07589a	0.03304348
13	0x3d9bb2a3	0.076024316
14	0x3d149212	0.036272116
15	0x3b6d1868	0.0036177877
16	0x3c04cd94	0.008105654
17	0xbd85dda7	-0.065364175
18	0xbd4da475	-0.050205667
19	0x3da1ba95	0.07896916
20	0xbc95c142	-0.018280629
21	0x3d62234d	0.055209447
22	0xbdae8877	-0.08522122
23	0x3dc05c52	0.09392609
24	0x3db93d10	0.0904485
25	0xbc7c2309	-0.015389212
26	0xbabf0b66	-0.001457554
27	0xbda0494b	-0.078264795
28	0xbddf2214	-0.10895172
29	0x3dc494a7	0.09598666
30	0x3c3316dc	0.010930743
31	0xbc4f1e24	-0.012641463
32	0xbd9779cf	-0.0739628
33	0x3d952963	0.072832845
34	0x3d46ecd6	0.048565708
35	0xbc4f8a56	-0.012667259
36	0x3d4bf25b	0.049791675
37	0x3dc2b3b3	0.09506931
38	0xbcd6e9ff	-0.026234625
39	0x3cfa3efa	0.030547608
40	0xbcb6a3db	-0.02229493
41	0x3c43871e	0.01193407
42	0xbd2484b6	-0.040165626
43	0xbd33c3ab	-0.043887775
44	0xbca56665	-0.020190427
45	0x3dcee146	0.10101561
46	0xbdcf472a	-0.10120995
47	0xbdf11fe3	-0.1177366
48	0x3da1d7e8	0.07902509
49	0x3d567237	0.052355018
50	0x3c34cf3f	0.011035739
51	0xbd17cd7a	-0.037061192
52	0x3d6e69b7	0.058206286
53	0xbc4fe3a0	-0.012688547
54	0x3db60f53	0.088896416
55	0x3d453318	0.04814443
56	0x3bf86da7	0.007581431
57	0xbda57ad7	-0.080800705
58	0xbdb6600b	-0.089050375
59	0xbda62f57	-0.08114498
60	0xbd00422d	-0.03131311
61	0xbd610d81	-0.05494452
62	0x3cde77f7	0.027156813
63	0xbd19277c	-0.03739117
64	0x3d897fc4	0.067138225
65	0xbdab0728	-0.08350974
66	0x3cb1071a	0.021609832
67	0x3cec4978	0.028843626
68	0xbda1990a	-0.07890518
69	0xbdb3bcee	-0.0877627
70	0x3c85e8c5	0.016346345
71	0x3d12da45	0.03585269
72	0xbc4f55f9	-0.012654775
73	0xbd4c8066	-0.049927138
74	0xbda68ca1	-0.081322916
75	0x3dc75d80	0.097346306
76	0x3d7d4617	0.06183442
77	0xbca06ada	-0.0195822
78	0xbdd07b3c	-0.10179755
79	0xbd04be63	-0.03240813
80	0x3d694e3d	0.05695938
81	0xbd541d19	-0.051785562
82	0xbcb3d9d4	-0.021954454
83	0xbda40677	-0.080090456
84	0xbbd6b0eb	-0.006551852
85	0x3d679f39	0.05654833
86	0x3d701629	0.058614884
87	0xbd9f2d7e	-0.07772349
88	0xbdc4ea40	-0.09614992
89	0x3d3beb61	0.04587877
90	0x3cf4bf49	0.029876368
91	0x3d7f6494	0.06235178
92	0xbd9cbd2a	-0.07653268
93	0x3c91ef9f	0.017814456
94	0xbc88ae30	-0.016684622
95	0xbc44a5c5	-0.012002413
96	0xbd4a32cf	-0.04936486
97	0xbd2b48cd	-0.041817475
98	0x3bc711b5	0.006075109
99	0xbc5d8dbb	-0.013522561
100	0xbd17a474	-0.03702207
101	0x3c4af890	0.0123883635
102	0x3d9fb8fa	0.07798953
103	0xbe11950c	-0.14217013
104	0x3ce53179	0.027977692
105	0x3dbdb38c	0.092627615
106	0xbd445b8e	-0.047938876
107	0x3d0b3fb1	0.033996288
108	0xbcd33074	-0.02577994
109	0xbd62d22f	-0.055376228
110	0x3d327570	0.04356903
111	0xbd1c713d	-0.03819393
112	0xbd3628ab	-0.044472378
113	0x3d9919fd	0.0747566
114	0xbd939239	-0.07205624
115	0xbdb3a729	-0.08772118
116	0x3d828234	0.063724905
117	0x3c5dd3a7	0.013539231
118	0x3d494645	0.04913928
119	0xbbe51f62	-0.0069922665
120	0x3d6a2fdf	0.05717456
121	0x3d9f283e	0.077713475
122	0xbd00b88e	-0.031426005
123	0xbc9a51ca	-0.018837828
124	0xbd466e35	-0.048444945
125	0xbd0a9563	-0.033833873
126	0xbc136a4b	-0.00899751
127	0xbd43912f	-0.04774588
128	0x3bb1df1c	0.005428208
129	0xba29650f	-0.0006461897
130	0x3dc6e4cf	0.097116105
131	0xbd1cf56a	-0.038319983
132	0x3ce25321	0.02762753
133	0x3d14515f	0.036210414
134	0xbd0f2057	-0.03494295
135	0xbd92b9f0	-0.07164371
136	0xbc7d8d51	-0.015475587
137	0x3c857ee5	0.01629586
138	0xbca4ec2c	-0.020132147
139	0xbdb308b3	-0.087418936
140	0x3c9161bf	0.017746804
141	0xbd7ff9cc	-0.062494084
142	0x3d541214	0.051775053
143	0x3d8a6c53	0.067589425
144	0xbca5cebf	-0.020240186
145	0x3d6b0cdf	0.05738532
146	0xbda8677d	-0.08222864
147	0x3d946959	0.07246656
148	0xbcef50aa	-0.029213268
149	0x3d369067	0.044571307
150	0xbd5daa35	-0.0541174
151	0xbdc07390	-0.09397042
152	0x3da4401a	0.08020039
153	0xbd8bc9a4	-0.06825569
154	0x3ce20d0a	0.027594108
155	0x3bf31ec8	0.007419441
156	0x3d6c8d2b	0.057751816
157	0xbae8d7a1	-0.0017764458
158	0x3dc8489e	0.09779476
159	0x3d11c2c5	0.035586137
160	0xbd058797	-0.03260001
161	0xbdf4e5a6	-0.119578645
162	0xbd9fff43	-0.07812359
163	0xbd49313c	-0.04911922
164	0xbd09f212	-0.033678122
165	0x3d3813b1	0.044940654
166	0xbcd2e326	-0.025743078
167	0x3baf4b47	0.00534955
168	0x3d94c575	0.072642244
169	0x3d59c098	0.053162187
170	0x3b95bb29	0.0045694304
171	0x3d341368	0.04396382
172	0xbda0c595	-0.07850186
173	0x3c39f47b	0.011349793
174	0xbc9988c5	-0.018741975
175	0x3da7db20	0.08196092
176	0x3d08a5e2	0.033361323
177	0x3d7c7f0f	0.06164461
178	0x3cd67ef5	0.026183585
179	0x3d2756ac	0.04085414
180	0xbda2bcb9	-0.07946152
181	0x3cd7cad3	0.026341831
182	0xbc584526	-0.01320008
183	0xbc133903	-0.008985761
184	0xbc7b2d68	-0.01533065
185	0x3cd503e6	0.026002835
186	0xbd7c4fba	-0.06159947
187	0xbd297ebb	-0.041380625
188	0xbd7cba88	-0.061701328
189	0xbb30f9fc	-0.002700447
190	0xbcc5ea6e	-0.024159636
191	0xbbb030a3	-0.0053768917
192	0xbd663a5f	-0.05620801
193	0x3d889d78	0.0667066
194	0x3ce6bf8e	0.028167512
195	0x3c8f9604	0.017527588
196	0xbb8529b7	-0.0040638107
197	0x3c61da42	0.013784947
198	0xbce123cb	-0.027482888
199	0xbcac9527	-0.021067215
200	0xbd93e8ff	-0.07222175
201	0xbd00de44	-0.03146197
202	0x3ca48b13	0.020085847
203	0x3d22d799	0.03975639
204	0xbdb8560e	-0.09000789
205	0x3d8727bc	0.065993756
206	0xbd7c5fef	-0.061614927
207	0x3d92ff90	0.07177651
208	0x3d5fe70b	0.0546637
209	0x3c00e2a6	0.007866537
210	0x3c774ecd	0.015094471
211	0x3b8a4f10	0.0042208508
212	0xbd6bf963	-0.05761088
213	0x3db65667	0.08903199
214	0x3cc10aa0	0.023564637
215	0xbcdb157c	-0.026743643
216	0xbde5acc7	-0.11214595
217	0x3cbac46e	0.022798743
218	0x3b09cf9c	0.0021028286
219	0xbdb4bfef	-0.08825671
220	0x3c576aa3	0.013147983
221	0xbde24d3d	-0.11049888
222	0x3cc2a8b1	0.023762079
223	0x3da2f288	0.079564154
224	0x3dc54329	0.096319504
225	0xbd42575f	-0.047446605
226	0x3cdbd9c4	0.026837237
227	0x3d066e9f	0.03282034
228	0x3d97c5ca	0.07410772
229	0xbda451ce	-0.080234155
230	0xbd14f89e	-0.036369912
231	0x3d1bc0e2	0.038025744
232	0x3d6543f0	0.055972993
233	0xbdc0823f	-0.093998425
234	0x3d67831d	0.056521524
235	0xbd7dd567	-0.061971094
236	0x3c5b4edf	0.013385504
237	0x3ce6a26c	0.02815362
238	0xbd9a5a34	-0.07536736
239	0x3d030c7c	0.031994328
240	0xbdb4d10e	-0.088289365
241	0xbddb509f	-0.10708737
242	0xbda98a21	-0.08278299
243	0x3d24202b	0.04006974
244	0x3b7bba83	0.003841073
245	0x3d952b25	0.0728362
246	0xbd69b392	-0.057056017
247	0x3a196aca	0.00058523996
248	0x3bf1b4fd	0.007376312
249	0xbc9b9c20	-0.018995345
250	0x3d9294e1	0.07157303
251	0x3d1fc649	0.03900746
252	0xbd9c4f81	-0.07632352
253	0xbbedf03b	-0.0072613037
254	0x3dc04295	0.093876995
255	0x3db930bd	0.09042499

fc2.bias f4 [64]
0	0x3bae2a6d	0.005315116
1	0xbd172bd2	-0.036907025
2	0x3d863959	0.06553907
3	0xbd2ed36a	-0.04268209
4	0x3d9119b9	0.07084984
5	0xbd8c6f83	-0.06857207
6	0x3ca734db	0.020410946
7	0xbd464a2d	-0.048410583
8	0xbd8e5c76	-0.06951229
9	0x3d940b29	0.07228691
10	0xbc6207ae	-0.013795776
11	0xbd5d06e4	-0.05396165
12	0xbd37caef	-0.044871267
13	0x3d9831e0	0.07431388
14	0xbda44d71	-0.08022583
15	0xbd8e2e41	-0.06942416
16	0xba8e31b1	-0.001084855
17	0x3d9ffc00	0.07811737
18	0x3b94075e	0.00451748
19	0x3ca27147	0.019829405
20	0xbdb00875	-0.08595363
21	0xbcc6ff7f	-0.024291752
22	0x3c75dc76	0.015006175
23	0x3cb3030d	0.02185204
24	0xbcc52fee	-0.024070706
25	0xbc124605	-0.008927827
26	0x3d1e45ab	0.03864066
27	0x3bb9ce49	0.005670343
28	0xbb441f3a	-0.002992584
29	0x3bee1e18	0.007266771
30	0x3d6b7e44	0.057493463
31	0x3d77d40a	0.06050495
32	0x3c19013f	0.009338676
33	0x3da2c2cb	0.0794731
34	0xbd654958	-0.05597815
35	0xbca87ecd	-0.020568276
36	0x3ccf8033	0.025329685
37	0xbd18bd9d	-0.037290204
38	0xbcd34b95	-0.025792876
39	0xbb8c29e2	-0.0042774538
40	0x3b5c1e47	0.0033587383
41	0x3c9156b7	0.017741544
42	0x3d9c90ab	0.07644781
43	0x3d42921e	0.04750263
44	0x3db28ec0	0.08718634
45	0xbc680791	-0.01416196
46	0xbbbeeb9d	-0.005826427
47	0xbd806d11	-0.06270803
48	0xbcd6964f	-0.02619472
49	0x3d7e1431	0.062030975
50	0x3d6ddd94	0.05807264
51	0xbbdc44a8	-0.0067220517
52	0xbd6421aa	-0.055696167
53	0xbcee9d5d	-0.029127771
54	0x3d0b8dd5	0.03407081
55	0x3ccc4bdc	0.024938516
56	0x3cd0a0f4	0.025467373
57	0xbbae25a3	-0.0053145452
58	0x3d8ed58f	0.06974327
59	0xbd8e6945	-0.06953672
60	0xbcd480bb	-0.02594029
61	0x3d71d49e	0.05904066
62	0xbd666205	-0.056245822
63	0xbbdad245	-0.006677898

out.weight f4 [1, 64]
0	0xbe469809	-0.19393934
1	0x3dd06820	0.1017611
2	0xbd5e01f3	-0.054201078
3	0x3cb93d34	0.022612192
4	0xbe017441	-0.12642004
5	0x3ea5d44e	0.32388538
6	0xbe393b4c	-0.18089026
7	0x3d02a6d6	0.03189739
8	0x3bd06440	0.006359607
9	0xbe4b03d3	-0.19825678
10	0xbe927372	-0.28603703
11	0xbe839e8a	-0.25706893
12	0x3dd89cef	0.10576808
13	0x3e7a49af	0.2444217
14	0x3e30c2f3	0.17261867
15	0x3df46501	0.119333275
16	0x3e24d51e	0.16096923
17	0x3e8524b8	0.26004577
18	0xbdec119d	-0.11526797
19	0xbe66f1d7	-0.22553192
20	0xbe50a02a	-0.20373598
21	0x3e96bf99	0.29443052
22	0xbe2ec6c4	-0.1706801
23	0x3e69a7af	0.22817872
24	0x3e9bf20a	0.304581
25	0x3dffdcab	0.12493261
26	0x3e9005f8	0.28129554
27	0xbdf17e13	-0.11791625
28	0xbe67a8a1	-0.2262292
29	0x3dd7c2b7	0.10535186
30	0xbe22153b	-0.15828411
31	0xbdba1067	-0.0908516
32	0xbe73aa54	-0.23795444
33	0xbe8df9ae	-0.27729553
34	0xbe945787	-0.28973028
35	0xbe47b405	-0.19502266
36	0xbe4920a2	-0.19641355
37	0x3e9c32bc	0.30507457
38	0xbdace271	-0.08441628
39	0xbe903b05	-0.28170028
40	0xbe93b8f6	-0.28852051
41	0x3e90dc4d	0.28293076
42	0xbe337cc5	-0.17528065
43	0xbe35db4c	-0.17759436
44	0x3da5019e	0.08056949
45	0x3e42b45f	0.19014119
46	0x3e877f30	0.26464224
47	0x3e76d7c8	0.24105752
48	0xbd68d0bd	-0.056839693
49	0x3ea6f4d8	0.32608676
50	0xbe9ee476	-0.31033677
51	0xbe92ddcb	-0.2868484
52	0x3e537f3a	0.20654002
53	0xbd67e330	-0.056613147
54	0x3cf2d0c4	0.029640563
55	0x3e3be630	0.18349528
56	0x3e4d33fe	0.20039365
57	0xbe70a50f	-0.23500465
58	0x3e955145	0.29163566
59	0x3e5e55b7	0.21712385
60	0xbdef7c32	-0.1169361
61	0x3d11b364	0.03557147
62	0xbe782e0e	-0.24236318
63	0x3e84c4b9	0.25931337
